…
+-------------------+-----------------+
| Node dim          | 128             |
+-------------------+-----------------+
| Num heads         | 4               |
+-------------------+-----------------+
| Num layers        | 3               |
+-------------------+-----------------+
| Output dim        | 1               |
+-------------------+-----------------+
| Seed              | 16              |
+-------------------+-----------------+
| Test batch size   | 64              |
+-------------------+-----------------+
| Train batch size  | 64              |
+-------------------+-----------------+
Using GPU: 0
Graphormer(
  (node_in_lin): Linear(in_features=9, out_features=128, bias=True)
  (edge_in_lin): Linear(in_features=3, out_features=128, bias=True)
  (centrality_encoding): CentralityEncoding()
  (spatial_encoding): SpatialEncoding()
  (layers): ModuleList(
    (0-2): 3 x GraphormerEncoderLayer(
      (attention): GraphormerMultiHeadAttention(
        (heads): ModuleList(
          (0-3): 4 x GraphormerAttentionHead(
            (edge_encoding): EdgeEncoding()
            (q): Linear(in_features=128, out_features=128, bias=True)
            (k): Linear(in_features=128, out_features=128, bias=True)
            (v): Linear(in_features=128, out_features=128, bias=True)
          )
        )
        (linear): Linear(in_features=512, out_features=128, bias=True)
      )
      (ln_1): LayerNorm((128,), eps=1e-05, elementwise_affine=True)
      (ln_2): LayerNorm((128,), eps=1e-05, elementwise_affine=True)
      (ff): Linear(in_features=128, out_features=128, bias=True)
    )
  )
  (node_out_lin): Linear(in_features=128, out_features=1, bias=True)
)
Model Parameter: 853382
Using AdamW

Epoch #000, Train_Loss: 2.099473

Epoch #001, Train_Loss: 1.418126

Epoch #002, Train_Loss: 1.389455

Epoch #003, Train_Loss: 1.323193

Epoch #004, Train_Loss: 1.300928

Epoch #005, Train_Loss: 1.307095

Epoch #006, Train_Loss: 1.153577

Epoch #007, Train_Loss: 1.254053

Epoch #008, Train_Loss: 1.147663

Epoch #009, Train_Loss: 1.097274
…
